lstm.pth (torch, 20870 bytes, 5 tensors)

lstm.weight_ih_l0 f4 [128, 2]
000000 c2 05 2c bd 12 ef 35 3e 2c a6 2a be 76 64 38 3e
       -0.04199768 0.1776698 -0.16664952 0.18007073
000010 b2 25 2a be a4 ee 10 3e 8d a6 09 3d 3d a5 2d 3e
       -0.16615942 0.14153534 0.0336061 0.16957565
000020 bc c6 c0 3d 1d 6c 10 be c2 72 0e be 37 d5 e1 3d
       0.094129056 -0.14103742 -0.13910964 0.11026996
000030 60 b5 90 bd 9e e6 33 bd 65 94 ab bd 4d 83 53 be
       -0.070658445 -0.043921106 -0.083779134 -0.20655556
000040 f5 b8 9a bd 2b 90 72 3d cc 05 73 3e 7a 3a 41 3e
       -0.07554809 0.05921952 0.2373268 0.18869963
000050 42 17 34 3d 74 37 45 be 7f 39 9f 3d 86 cb 31 3e
       0.043967493 -0.19259435 0.077746384 0.17362794
000060 d2 db 96 3e 29 4d e9 bd 92 2c 6c be 8b 41 b8 3d
       0.29464585 -0.1139167 -0.23063877 0.08996876
000070 f2 78 23 3e 01 30 6a 3e 3d dd 84 3e 9e b1 1d bc
       0.15964106 0.22869875 0.2595004 -0.009624867
000080 75 97 55 3e 41 cf 50 3e 2b 2e 24 3e 15 d3 62 be
       0.20858558 0.20391561 0.16033237 -0.22150834
000090 70 0a a2 3e 52 31 57 3e 4c db 5c bd 0f 18 42 be
       0.31648588 0.21014908 -0.053920075 -0.1895449
0000a0 0b b7 20 3e 48 1f 79 3d c4 3e 65 be bc ab 07 3d
       0.15694825 0.060820848 -0.22387224 0.033122763
0000b0 e9 7c b6 bd 6a 36 77 be 58 55 0b 3e 2f d1 b5 3d
       -0.089105435 -0.24141851 0.13606775 0.08877789
0000c0 c8 65 28 3e e6 fd 25 bc d1 05 b9 3d 19 2a 98 3e
       0.16445076 -0.010131335 0.090343125 0.29719618
0000d0 50 b4 6d be d8 76 9c be c8 dd 94 3e c7 98 aa be
       -0.23213315 -0.3055942 0.29075456 -0.33319685
0000e0 29 3a 87 3c d5 10 7e be 54 75 e1 bd 60 27 c0 3d
       0.016507225 -0.24811108 -0.11008707 0.0938251
0000f0 01 00 e0 3c b6 b1 1e 3e 05 03 71 3c fc 08 b7 3c
       0.027343752 0.15497479 0.014710193 0.022343151
000100 f0 67 82 3d 60 6f 2a 3d 7b 99 5e 3e 69 d2 2b 3e
       0.06367481 0.04161012 0.21738236 0.16779484
000110 67 d9 51 bc 42 b1 f6 bb cc b3 56 3d f2 8b d0 3d
       -0.01280818 -0.007528455 0.05241756 0.101829425
000120 70 ee 8e 3e f2 18 fc bd 72 17 65 be 73 4d c9 3c
       0.27916288 -0.123094454 -0.22372225 0.024573063
000130 a8 30 8a 3d 70 44 ec bd 73 a5 6a 3e f3 de 77 be
       0.06747562 -0.11536491 0.22914676 -0.24206142
000140 34 7f 48 3d 39 86 75 be b8 de b7 3d f4 f9 20 3e
       0.048949435 -0.23976983 0.08978027 0.1572035
000150 42 2c 25 3e 5e 9d 91 be 03 9d e7 3d af 40 91 3c
       0.16130164 -0.28440374 0.113092445 0.017731039
000160 d0 72 25 bc 9d 15 f7 bc 97 bc 1e be f7 2a 10 3d
       -0.010098174 -0.030161673 -0.15501629 0.035197224
000170 aa 2a 4f 3e 74 a4 6c 3d a9 99 fa 3a 11 5d 2d 3d
       0.20231119 0.057774022 0.0019119281 0.042325083
000180 af 64 30 3d f2 1b ec 3d 6d 33 b7 ba 05 7f 60 be
       0.04306477 0.11528768 -0.0013977118 -0.21923454
000190 28 63 3d bd f0 2c 0b 3e d1 bd ee 3d 9e a7 93 be
       -0.04623714 0.13591361 0.11657298 -0.2883882
0001a0 ef c0 d7 3b 3c 13 80 3e 6d 6c 9e 3e 60 21 02 3d
       0.006584279 0.25014675 0.30942097 0.03177011
0001b0 49 6a 30 3e 08 95 a5 be 4a fe e1 3d 0a 9d 76 3e
       0.17228045 -0.32340264 0.1103483 0.24083343
0001c0 af 6d c1 3c a0 7d 82 be 33 0b 2c 3e 45 dd e8 3d
       0.023611872 -0.2548647 0.16801147 0.11370329
0001d0 3a 8e e5 3e 7c e2 a2 be e9 b2 9a 3d 2c 20 84 be
       0.44835073 -0.3181342 0.07553656 -0.25805795
0001e0 8f d7 4b 3d 8a 71 d9 3d 80 93 ba bb d7 46 01 3e
       0.04976612 0.10617359 -0.005693853 0.1262468
0001f0 24 9b 47 3e 0c 6a 32 3d 7c 49 31 be ef 42 8b be
       0.19492775 0.043558165 -0.17313188 -0.27199504
000200 3b 9d 46 bd ba dc 83 3a 59 56 e7 3d 1c d7 25 3d
       -0.04848979 0.0010060288 0.112957664 0.040488347
000210 16 83 04 be 30 4a 58 be 80 9d 37 bc 2f 83 c9 bc
       -0.1294063 -0.2112205 -0.0112069845 -0.024598686
000220 95 95 2e be 8b dc 73 3e 21 d1 7b be fc 5e 91 be
       -0.17049249 0.23814599 -0.24591495 -0.2839278
000230 90 8e 0d bd b4 a3 3c 3d 18 67 29 bd 0e 2e 62 3e
       -0.034559786 0.046054557 -0.041358083 0.22087881
000240 87 3e 40 3b 68 37 cb 3d fe 2f 30 bd a6 ac 57 3b
       0.0029334144 0.09922677 -0.04301452 0.0032909303
000250 87 90 2e 3e 35 35 8e be 85 3f 1b bc 0c c7 e5 3c
       0.1704732 -0.2777497 -0.009475593 0.028049015
000260 d2 c6 79 be 0f 56 73 3d 0b ef 0b 3c 4d cb 8d be
       -0.2439225 0.059408244 0.008540879 -0.2769417
000270 0b 36 cc bb 13 ab 9b 3b fe ce 3a 3e ff 49 82 bb
       -0.0062320284 0.0047506182 0.18243024 -0.003976106
000280 a4 8f 7d be de d4 97 be ef 8e 39 bc ef 80 f5 bd
       -0.24761826 -0.29654592 -0.011325582 -0.11987483
000290 5f b8 20 3e 6a c9 71 3d ca 13 39 bb 27 32 8d 3e
       0.15695332 0.059029974 -0.0028240555 0.27577326
0002a0 3d 61 13 bd 4c 41 e0 ba d4 a6 dc ba a4 ad 0c 3d
       -0.035981406 -0.0017109304 -0.0016834387 0.034345284
0002b0 6a 9e 83 bd 5f a3 46 3e 4d 5b 2a be 0c e4 fe bd
       -0.064266995 0.19398259 -0.16636391 -0.1244584
0002c0 86 09 88 be b8 a3 69 3e 12 53 df 3d 02 e4 66 3e
       -0.26569766 0.2281636 0.10904516 0.22547916
0002d0 34 cc 9f 3b 35 8f 40 3e f0 3e 3e 3e fa ae 70 be
       0.004876638 0.18804629 0.18578696 -0.23504248
0002e0 40 2b 9d be 8d 31 15 3c d3 98 8c ba 3a 69 36 3c
       -0.3069706 0.009106052 -0.0010726698 0.011133486
0002f0 d7 e5 44 bd ea ff 2a 3c 0a f3 ae bc cd 42 d1 3b
       -0.048070755 0.010436991 -0.021356124 0.006386137
000300 5b be 99 3c 28 67 e7 bc bb 93 57 3e 37 21 40 3e
       0.018767526 -0.02824743 0.21052448 0.1876267
000310 87 ad db bd 95 a4 3f 3d 64 51 7b 3e 0a f2 86 3e
       -0.10726457 0.046787817 0.24542767 0.26356536
000320 0a 7b f1 3e df 86 da bd 4c 04 91 be 11 00 ee 3c
       0.47164184 -0.10670256 -0.2832359 0.029052766
000330 3f ca e1 3e f1 15 04 3e c8 de b6 3d 71 fd 64 bd
       0.44099614 0.12898995 0.08929211 -0.055905763
000340 73 87 e2 3e 66 84 05 3e 78 de 9a 3e b6 43 73 3e
       0.44243965 0.13038787 0.30247855 0.23756298
000350 58 d9 b0 3e 41 a8 8f be f6 40 98 3e 4b 6c 60 3e
       0.3454082 -0.28058055 0.2973706 0.2191631
000360 eb ea 3d 3e c9 3b 24 bd cd cb 8c be 35 34 ba 3d
       0.18546645 -0.040096078 -0.27499238 0.09091989
000370 3a b8 a1 3e 6f 36 72 3e 3e c7 8d 3e 43 98 dc 3d
       0.31585866 0.23653577 0.27691072 0.10771229
000380 54 eb 52 3d 28 9c 87 3e 7d 09 e8 3e 1d d2 97 bd
       0.051493958 0.26486325 0.4531974 -0.07413123
000390 64 d5 59 3e 42 4c 95 3e ee 5b e4 3e 0d f0 8b be
       0.21272808 0.29159743 0.44601387 -0.27331582
0003a0 0b bb 2d 3e 7e ae 94 3e 6e ac 49 3e f1 27 25 3e
       0.16965882 0.29039377 0.19694683 0.16128518
0003b0 18 0a eb 3e 32 56 e4 bd 22 9a 36 3e bb a5 8c 3e
       0.45906138 -0.11149253 0.17832235 0.27470192
0003c0 35 75 9e 3e c0 d0 85 ba 34 db 24 be 75 9b 88 3d
       0.30948797 -0.0010209307 -0.16099244 0.06670276
0003d0 de 8f 82 3e 3b c2 01 be d9 a4 00 3f 4e 25 07 bd
       0.25500387 -0.1267175 0.5025154 -0.03299456
0003e0 5f ce f6 3d 9c 1d 14 3c 9f 7d 5b 3e 7c 69 32 3e
       0.12051081 0.009040263 0.2143464 0.17423052
0003f0 3c fd 0f 3e d2 ba 30 3e 7d c0 91 bd 54 a8 2b 3d
       0.14061445 0.17258766 -0.07116792 0.041908577

lstm.weight_hh_l0 f4 [128, 32]
000000 5e 32 d9 bc bd dd 7b be 10 3c ee 3c 73 ad 75 3e
       -0.026513275 -0.24596305 0.029081374 0.23991947
000010 e1 e8 33 3d 1d c2 a3 bd e8 4e ad bd 1e 26 8a be
       0.043923263 -0.079960085 -0.08462316 -0.26982206
000020 7b dd 42 3d 52 de cb bd 9c 12 50 3e a0 e2 85 be
       0.0475745 -0.099545136 0.20319599 -0.26149464
000030 10 81 96 be 69 62 41 be 62 dd 44 3d 1e 9a fe 3d
       -0.29395342 -0.18885197 0.04806269 0.12431739
000040 3c b1 11 be d3 9a 71 3e 08 7b f6 3d 93 b5 18 be
       -0.14227766 0.23594217 0.12035185 -0.14913015
000050 f4 18 54 be 29 d6 8e 3c 67 a2 98 be 30 46 47 3c
       -0.20712644 0.017436104 -0.29811403 0.01216273
000060 15 f6 40 3e 29 16 b2 bc b5 8f 1d be ee df 00 3d
       0.18843873 -0.021739082 -0.15386851 0.031463556
000070 58 40 87 3d b3 fd c8 bd 02 d8 73 be 52 1d fa bc
       0.066040695 -0.09814014 -0.23812869 -0.03053156
000080 e4 68 17 3c fe 43 81 bd ef 7e 54 3e 75 b3 93 3e
       0.0092413165 -0.063117966 0.20751546 0.28847852
000090 70 f4 8e be 7d 7d 7c 3d 3b d2 29 be b5 df 9e 3d
       -0.27920866 0.061643112 -0.16584103 0.077575125
0000a0 63 f4 7e be ea 69 9c be 22 25 7f bd a0 6d 04 be
       -0.24897914 -0.30549556 -0.062291272 -0.12932444
0000b0 05 54 41 bd d0 8f 50 be 72 30 c1 bd 01 2b 23 bc
       -0.047199268 -0.2036736 -0.09433068 -0.009958983
0000c0 0c 8c 7a be e7 c2 df 3d 96 37 18 3e e1 43 2a be
       -0.24467486 0.109258465 0.14864954 -0.16627456
0000d0 dc 3a ab be a9 a5 53 bc 30 b2 a0 be 67 68 60 3d
       -0.33443344 -0.012917914 -0.31385946 0.054787066
0000e0 76 de 28 3e 36 9a 41 3e 1c 01 d4 bd a5 fe e5 3d
       0.16491112 0.18906483 -0.10351774 0.1123021
0000f0 39 29 5f bd 26 53 f1 bc 98 e7 93 bd 87 91 74 be
       -0.054482672 -0.029458594 -0.072219074 -0.2388364
000100 8b 8e 2c bd d9 06 72 3e d8 00 b4 3d 99 30 75 be
       -0.042128127 0.23635425 0.087892234 -0.2394432
000110 55 38 1b be 1d b8 1d be a2 1a 63 3e ad b8 af bd
       -0.15158208 -0.15402265 0.22178128 -0.08580146
000120 e7 09 e4 3d 4f bf 43 3e 6e 33 31 3e 15 ba 7d 3e
       0.11134701 0.19115947 0.17304775 0.24778016
000130 c7 ac bc bb 58 af e6 3d 3a 90 61 3e 78 54 00 3d
       -0.0057579014 0.11263913 0.22027674 0.031330556
000140 8a 83 d6 bd 7e d8 13 be 23 7b 94 3d 1c 5c 07 be
       -0.10474308 -0.14438054 0.07250049 -0.1321873
000150 f2 42 eb 3d 84 48 5d 3d b2 ff c0 bd 4c ff 35 bd
       0.11487378 0.054024234 -0.0942377 -0.044432923
000160 52 60 27 bd b8 b8 a5 3d c7 e5 61 be e2 b0 5f bb
       -0.040863343 0.08091873 -0.2206031 -0.003413253
000170 47 6c 39 be 0a a8 20 be d4 16 6e 3e bd 8b 25 3d
       -0.18107711 -0.15689102 0.23250896 0.040416468
000180 3b d6 98 3d 9a 9e 2e 3c 36 09 f7 bc 70 85 a0 3e
       0.07462736 0.010657931 -0.03015576 0.31351805
000190 e6 41 1f be 89 77 dd 3d 29 e5 53 3b 5d 3f fd 3c
       -0.15552482 0.10813815 0.0032332635 0.030914003
0001a0 72 e6 40 be b4 50 9d be 4a ad 17 bd e8 84 82 be
       -0.18837908 -0.30725634 -0.037030496 -0.25492024
0001b0 27 f7 67 bb 8b b7 00 bd 2d df ab bd 56 35 79 3d
       -0.0035395117 -0.03142504 -0.08392177 0.06084188
0001c0 c1 98 20 3a d8 25 2a 3e 78 f8 67 3d da 30 53 be
       0.0006126278 0.16615999 0.056633443 -0.20624104
0001d0 45 4f a3 be f0 4a a4 bb 62 33 24 be 96 f4 59 3d
       -0.31896415 -0.005013816 -0.16035226 0.05321177
0001e0 40 c0 dd 3d 97 ba 59 bd df 23 ba 3d ce 7d bb bd
       0.108276844 -0.05315646 0.09088873 -0.09154855
0001f0 fd 01 7f bc 17 33 a9 be a0 89 f2 bd b4 e0 9b be
       -0.015564439 -0.3304679 -0.11842656 -0.30444872
000200 42 3e 3b 3e 5e 37 da 3c 46 ce 1f 3e d4 b3 30 3e
       0.18285468 0.02663773 0.15606031 0.17256099
000210 0d 2a 94 be ab d9 32 3e ae 3f 2c bd 07 6b 25 be
       -0.28938332 0.17465846 -0.042052917 -0.16154109
000220 af 51 88 bd 73 ee 01 3e 95 b2 c7 bc c3 f8 82 bd
       -0.06656205 0.12688617 -0.024377147 -0.06395104
000230 0b 7b 40 bb 80 d4 fb 3d 39 84 9c 3d 5d c1 0c 3e
       -0.0029370214 0.122963905 0.07642407 0.13745637
000240 c0 f5 00 3d bc 08 a7 3e 93 c7 1c 3e d6 ee c5 bd
       0.031484365 0.3262385 0.15310507 -0.09664695
000250 d1 52 92 be 34 3c df bd 0f 5a 64 be 8a a9 0b 3c
       -0.2857881 -0.10900155 -0.2229998 0.008524308
000260 ae 2b 87 3d b2 91 f9 bd e1 e6 0c be 9a 25 e3 3d
       0.06600128 -0.12185992 -0.13759948 0.11091156
000270 b3 4a 0f be ff 63 21 be 7a b1 87 be a3 2e 5f be
       -0.13993339 -0.15760802 -0.2650259 -0.21795134
000280 74 4c 04 bd 3a 4a ba 3d cc 8b 72 3d 55 be b9 bd
       -0.032299474 0.09096189 0.059215352 -0.09069506
000290 57 b7 28 bd 02 9e 43 be ee c6 a2 bd c8 19 98 bd
       -0.04119047 -0.19103244 -0.07948099 -0.074267924
0002a0 fe 5b 87 3d 7b 4e 7e bc 25 7b d9 39 71 d0 62 3e
       0.06609343 -0.015521641 0.00041481215 0.22149827
0002b0 2e 58 b9 bd a7 cd e3 bd 52 97 9a bc 5f 69 15 3e
       -0.09050022 -0.111232094 -0.018870983 0.14590977
0002c0 b8 c8 3f bd 8a a9 80 3d 1a ef 74 3d 1c de a8 bd
       -0.04682228 0.06282337 0.059798338 -0.08245489
0002d0 e0 ad 15 3e fa fd be 3c 22 62 15 3e 65 ee 21 3e
       0.1461711 0.023314465 0.14588216 0.15813597
0002e0 fb 66 44 bb 3a c1 8f 3d 06 e6 b6 3d c0 72 03 3c
       -0.0029968608 0.07019277 0.08930592 0.008022964
0002f0 a0 9a 50 be cf d6 1b 3e 85 e4 4e bd 38 d8 1a bd
       -0.20371485 0.15218662 -0.050510902 -0.03780386
000300 a9 bd 94 3c bb e7 9e be 91 cf 78 3d e8 6e 8e 3e
       0.018156843 -0.3103617 0.060744826 0.2781899
000310 5a df 48 be a3 25 ec 3d 19 fd 31 bd e7 1e de bc
       -0.19616452 0.11530616 -0.043454263 -0.027114345
000320 a9 02 2b 3c 1c 80 a7 be 61 e7 40 3e e4 1b b1 b9
       0.010437646 -0.32714927 0.18838264 -0.0003378085
000330 39 31 92 bd af 91 72 be 57 23 5b be 7d 65 73 3e
       -0.07138295 -0.23688386 -0.214002 0.23769183
000340 e3 a4 c7 bd ad 34 02 3e 40 8d 9b 3e 6b 1f 2e 3d
       -0.097482465 0.12715407 0.30381203 0.04251043
000350 7d 20 a0 be de b9 72 be 77 ec a9 be 9b 10 ce bd
       -0.31274787 -0.23703715 -0.3318822 -0.10061761
000360 74 23 a9 3c ff e0 d4 3b e6 ef 92 3d 3f 0e a1 3d
       0.020646788 0.006496548 0.07174663 0.07864045
000370 f1 34 92 bd a3 03 7e bc d2 5f ec bd c4 81 38 be
       -0.07139004 -0.015503797 -0.11541714 -0.18018252
000380 60 33 c0 bd 29 31 bf bd be 63 63 bd a4 b7 69 3e
       -0.09384799 -0.093355484 -0.055515043 0.2282396
000390 1d b1 1a be 15 dd 5e 3d 6a d6 0c be 01 88 98 be
       -0.15106626 0.05441006 -0.13753667 -0.29791263
0003a0 00 1e b8 bc aa 20 b8 3c e9 af c7 3d d0 76 16 3d
       -0.022475243 0.022476513 0.09750349 0.036734402
0003b0 7f 6f 8c bc 00 ba 93 3d 00 8e 40 be ae 40 66 3e
       -0.01714301 0.07213211 -0.18804169 0.22485611
0003c0 65 27 13 3e 08 05 0b bc 28 8d d1 ba 2e 1c 9b be
       0.14370497 -0.008485086 -0.0015987502 -0.30294937
0003d0 87 02 89 bc 0d ae 19 3d 50 d8 89 be 50 47 77 bc
       -0.016724838 0.037519503 -0.26922846 -0.015092686
0003e0 7d cd f0 bc 10 95 34 3c 56 82 93 be ec 3e 57 3e
       -0.02939486 0.011021867 -0.28810376 0.21020097
0003f0 3f 90 04 be e4 44 d6 bc d1 8b e9 bd 08 ae 90 be
       -0.1294565 -0.026155896 -0.11403621 -0.28257775

lstm.bias_ih_l0 f4 [128]
000000 8d 2e 2c 3e 51 91 a7 3e 69 1f ea bd 5b 35 af 3e
       0.16814633 0.32728055 -0.11431772 0.34220394
000010 cb 0f f4 3d 68 86 89 3d b3 54 c2 3c 9a 5b 5a 3e
       0.11917075 0.06715089 0.023722028 0.21324006
000020 35 bd 20 3e fe 65 58 3e c8 ca 46 3d 12 5e 41 3e
       0.15697177 0.21132657 0.04853323 0.18883541
000030 5c 70 0b bc 9b 1c 85 be 73 67 9a 3e 0e 17 9c 3e
       -0.008510675 -0.25998387 0.3015705 0.3048634
000040 7e 52 68 bd b1 e4 55 3e 76 3f 49 3d 88 31 d3 3c
       -0.056719296 0.2088802 0.049132787 0.025780454
000050 c0 89 35 3e 65 96 b7 3d d2 38 91 3e 9e a7 eb 3c
       0.17728329 0.08964232 0.28363663 0.02876645
000060 86 1b f9 bd e4 1b b8 bd e3 d4 31 3e c7 fe 88 bd
       -0.12163453 -0.08989695 0.17366366 -0.0668922
000070 80 4b 33 be 0b e3 86 3e 56 b2 1c 3e 4c eb 5a 3e
       -0.1750927 0.26345095 0.15302405 0.21378821
000080 5d 91 04 3d 60 a7 49 3c fa 34 51 be a7 bb 37 3e
       0.03236519 0.012307972 -0.20430365 0.17942677
000090 67 43 f4 3d c8 a6 7e bd a9 5e ad 3c ec 82 44 3e
       0.119269185 -0.062170774 0.021163302 0.19190568
0000a0 1d 0c e3 3d 02 9e 85 3e 5c 00 a4 3c 24 35 0b 3d
       0.11086295 0.26097113 0.020019703 0.033986226
0000b0 c8 c8 8b 3e d4 f6 16 be 68 d8 1c 3e a9 be 43 3e
       0.2730162 -0.14742595 0.15316927 0.191157
0000c0 56 b4 77 bd f3 6f 88 3e 9f 9b 53 3c d5 80 3d 3a
       -0.060474716 0.2664791 0.012915521 0.00072289753
0000d0 92 47 17 3e fa 59 2b be c2 b6 af 3e 8d a7 8d bd
       0.14773396 -0.16733542 0.3431912 -0.069167234
0000e0 86 0b ad bd 9a 65 fb bd d4 fe 79 bd b5 1a 5a 3d
       -0.084494635 -0.12275238 -0.06103404 0.053248126
0000f0 f6 c5 61 be 94 f9 3d 3e b6 c2 0c 3e e8 8b 90 3e
       -0.22048172 0.18552238 0.13746151 0.2823174
000100 ed e5 83 3e ce 61 ad be 6e 3c d1 3d cc 98 fe 3d
       0.25761357 -0.33863682 0.10216604 0.124314874
000110 9f 5e 9c be 0d 04 64 3d ad 2c 74 be 92 b1 0c be
       -0.3054094 0.055667926 -0.23845167 -0.13739613
000120 f0 fe 8b be 7f 8e 71 be 0f 93 ed 3c 4f 51 51 be
       -0.2734294 -0.23589514 0.029000787 -0.20441173
000130 22 02 84 be 2a 47 78 bd 3f 2a 78 be 6c 74 f4 3d
       -0.25782877 -0.060614742 -0.24234866 0.11936268
000140 d9 35 f2 bd 08 57 9c 3e b8 aa 91 3e 67 bb cc bd
       -0.11826677 0.3053515 0.2845056 -0.09996682
000150 09 cf 91 be 92 4d 91 bc 74 93 34 be 14 59 87 be
       -0.28478268 -0.017737184 -0.17634374 -0.2643515
000160 88 3f 5d bd e5 6b a9 3d c4 72 80 be c7 2d 54 3e
       -0.054015666 0.082725324 -0.2508756 0.20720588
000170 db de 2a 3d 62 50 ef bd 76 a4 8a be 95 59 7e be
       0.041716438 -0.11685254 -0.270786 -0.2483886
000180 45 cb 77 bd 69 38 ef bb 7b 81 5a be 9c 07 7f 3e
       -0.060496587 -0.007300426 -0.21338455 0.24905246
000190 01 9d 42 3d b2 5e 04 be 16 ca e7 3c 27 4c 39 3e
       0.04751301 -0.12926748 0.028294604 0.18095456
0001a0 22 88 93 3d 30 ab 45 bc 34 be ef 3d d9 91 bd 3d
       0.072037 -0.01206474 0.117062 0.09256334
0001b0 67 1b 99 3a d2 99 0f be 90 27 77 3d 38 f2 00 3e
       0.001168114 -0.14023522 0.060340464 0.12592399
0001c0 3a 98 72 3d 58 1f 3b 3d b3 75 2b bc 22 bc bf bd
       0.059227206 0.04568419 -0.010465073 -0.09362055
0001d0 78 3d 33 3e 96 c2 d9 bc 1e 3d 89 3c a9 b2 9a 3d
       0.17503917 -0.026582044 0.016752776 0.07553608
0001e0 f8 99 19 be 5b b6 50 bc 1a 06 cc bd 98 b9 50 3b
       -0.1500014 -0.012738789 -0.09962101 0.0031848904
0001f0 5d 48 35 be 66 18 f6 bc d6 e3 4a 3e 8c e8 19 3e
       -0.17703386 -0.030040931 0.19813475 0.15030116

lstm.bias_hh_l0 f4 [128]
000000 26 7f 65 3e b0 26 e9 3c b4 a1 32 be b7 fc 9f 3e
       0.22411785 0.02846083 -0.17444497 0.31247494
000010 da 33 a7 3d 2e 3b 41 be 17 59 4a 3e 81 f9 e0 3d
       0.08164187 -0.18870232 0.19760548 0.10985089
000020 58 f7 a9 3e 80 16 89 3e aa f6 a3 3e 89 40 f7 3d
       0.3319652 0.2677498 0.32024127 0.12072856
000030 01 23 59 3e 9b cf 52 be cf f7 3b 3e 11 cc 20 3e
       0.21204759 -0.20587008 0.1835625 0.15702845
000040 01 71 59 be ef 4c 25 3c 80 de 17 3e a2 e1 f9 3d
       -0.21234514 0.010089143 0.14830971 0.12201239
000050 20 be 85 3d 4a 6f 3b be 57 47 1e 3d 1e 59 a9 3c
       0.06530404 -0.18304172 0.038642254 0.020672377
000060 24 74 80 be d4 32 56 be dc 73 f1 bd 69 12 e6 3d
       -0.25088608 -0.20917827 -0.117896765 0.1123398
000070 1f 8e 04 be 98 98 33 3e 6d 0c e0 3d 7c 7b 87 3d
       -0.1294484 0.17538679 0.1093987 0.0661535
000080 72 ca d2 3d c5 fc 7c 3d a0 ed 4a bd 00 7f 8a 3d
       0.1029252 0.061764497 -0.049543023 0.067625046
000090 c8 a1 5b 3e c7 fd d3 3d e7 1a 59 3d 36 79 55 bd
       0.21448433 0.103511386 0.05300417 -0.05211755
0000a0 b4 d7 eb 3d da 58 e6 bc 22 81 d4 bc 98 68 a1 3e
       0.115157515 -0.02811854 -0.025940482 0.3152511
0000b0 95 9f 56 3e f2 ba 77 be 48 a2 eb 3d 07 80 25 3e
       0.20959313 -0.24192408 0.11505562 0.1616212
0000c0 ba 88 09 be 68 96 40 3e ed 9c 42 3e a9 97 90 3e
       -0.13431063 0.18807375 0.19005175 0.28240708
0000d0 a2 ee ac 3e ce a8 70 bc 03 66 34 3e 01 1d 4f bd
       0.33775812 -0.014688684 0.1761704 -0.05056477
0000e0 89 8a 9f bc 3e a7 d2 bd ec a5 08 3e bb 7a ef bd
       -0.019475238 -0.10285805 0.13344544 -0.11693331
0000f0 73 69 b2 bd dc b9 09 3e 21 19 7f 3e 6b 75 41 3e
       -0.08711519 0.13449806 0.2491193 0.18892448
000100 72 72 83 3c 8d 9a 8e bc 7e 69 7e bd 23 6a a0 3e
       0.016045783 -0.01740768 -0.062112324 0.31330976
000110 b2 47 ff bd 65 9f 60 3d d4 f6 ac be d6 4d 21 be
       -0.12464847 0.05483951 -0.33782065 -0.15752348
000120 15 8c 96 be 08 2e 00 be 7c b9 95 3e 97 e3 93 be
       -0.2940375 -0.1251756 0.29243076 -0.28884575
000130 f2 7b 55 bd 53 59 04 3d 83 8d 95 be 87 28 82 3e
       -0.052120157 0.03231175 -0.29209527 0.25421545
000140 75 8b 60 be de fb a8 3e e0 5d a6 3d 2f ea 63 be
       -0.21928199 0.3300466 0.08123374 -0.22257303
000150 54 02 73 be 88 eb 14 be 8f e1 76 be e2 90 93 bd
       -0.23731357 -0.14542973 -0.24109481 -0.072053686
000160 35 fc a8 3d 94 66 c8 3d 1c 5f a3 bb 5e 7e 89 3c
       0.0825123 0.0978519 -0.004985703 0.01678389
000170 04 94 a0 3d b5 a1 8b be 4c 8e 03 be b9 01 75 be
       0.07840732 -0.2727181 -0.1284725 -0.23926438
000180 3f 7f 14 be 53 c9 00 3e d3 89 36 bc e9 e2 9c 3d
       -0.14501666 0.12576799 -0.011141258 0.07660467
000190 28 5e 3c 3e 44 4e f1 3a 66 ea 2b 3e 65 19 97 3d
       0.18395293 0.0018410166 0.16788635 0.073778905
0001a0 61 e8 44 3e 25 d4 99 3d d9 0b 29 3d 98 14 4a 3d
       0.1922927 0.075111665 0.041271064 0.049336046
0001b0 f9 5e 6a 3d a7 80 9c bd ad 6e 53 3c bf e5 55 3e
       0.05721948 -0.07641726 0.012904805 0.20888422
0001c0 a0 73 8a be 4f f0 96 3c f0 a3 7a 3e fb 72 72 bd
       -0.2704134 0.018425135 0.244766 -0.059191685
0001d0 0a f6 8a 3e b6 84 0f be 26 03 71 3d 8c 29 4c bd
       0.27140838 -0.14015469 0.058840893 -0.04984431
0001e0 a0 b0 9d 3d 59 1c 66 be 57 c2 0b bd e2 35 9d bd
       0.07699704 -0.22471751 -0.034120884 -0.07676293
0001f0 a2 e0 05 be b1 76 7a bd 92 22 95 3e 9c 97 85 3e
       -0.13073972 -0.06114835 0.29127938 0.2609223

fc.weight f4 [1, 32]
000000 1a 7e 60 3c 78 42 5b 3e 50 73 d9 3c 89 aa 5e be
       0.01370194 0.21412075 0.026544243 -0.21744741
000010 e2 f3 3b 3e 53 e6 e3 3c 7f 49 6a 3e 16 0d 28 3e
       0.18354753 0.027819788 0.22879599 0.16411242
000020 9d ce 85 3e e2 15 4f 3d 5d 86 37 be 5d 5f 85 3e
       0.26134196 0.05055798 -0.1792235 0.2604932
000030 c7 25 45 3e 4b ff 2a 3d e0 1a bc 3d e4 cd 90 be
       0.19252692 0.041747373 0.091848135 -0.28282082
000040 0a d8 39 3d 6f f5 17 be 3f 45 17 be e0 f4 11 3e
       0.045372047 -0.14839719 -0.14772509 0.14253569
000050 18 8a 32 3e 4e 16 d7 3d 85 e8 84 3e 4f 9f da 3d
       0.17435491 0.10502301 0.25958648 0.10674917
000060 8b 1b 91 3d a2 7c 6a bd 5e 57 a6 3d 17 42 fa bd
       0.070853315 -0.057247765 0.08122133 -0.12219637
000070 23 2f 10 3d 97 c4 2a 3e de a9 93 3e d1 d0 83 3d
       0.035201203 0.16676556 0.28840536 0.06436313
