app_config_files/lstm_AFL.pth (torch, 21034 bytes, 5 tensors)

lstm.weight_ih_l0 f4 [128, 2]
000000 48 35 1e 3d 92 53 94 3e 16 65 e2 bd ed a0 7d 3e
       0.03862503 0.2897001 -0.11054437 0.2476842
000010 82 da 51 3e 7e ab 81 3c ce ba 34 be 77 92 93 bd
       0.2049351 0.015828844 -0.17649385 -0.0720567
000020 36 42 73 bc 62 07 01 3d c2 bb 79 3e 40 77 c4 bd
       -0.014847329 0.03150118 0.2438803 -0.09593058
000030 02 c0 82 bd e7 46 a1 3e c3 32 0d bc d4 8b 0c 3d
       -0.06384279 0.31499407 -0.00861806 0.034313038
000040 e5 4a 69 bd a6 d4 fd bd d2 5f 19 3e f3 45 01 3e
       -0.05695619 -0.12394075 0.14977959 0.1262434
000050 3b 26 8b be 2b 25 ac 3d c7 da ca 3d 84 08 ea 3d
       -0.27177605 0.08405527 0.0990501 0.114274055
000060 19 e4 00 be e2 33 a0 3c bb ae 2b 3e f7 93 62 bd
       -0.12587012 0.01955599 0.16765873 -0.05531689
000070 24 0c db bd 16 1e 9e 3d a5 57 5e 3e 3c 04 3c 3e
       -0.10695675 0.07720582 0.21713121 0.1836099
000080 b1 e8 12 be f5 c2 d7 bc 05 58 f9 3d d1 7b 41 be
       -0.14346577 -0.02633808 0.121749915 -0.18894888
000090 64 44 ca 3d a7 3b 1f 3d 7d 3e 75 3e c2 b7 56 3e
       0.09876326 0.03887525 0.23949619 0.20968536
0000a0 2f 4a 7a be 8d 21 5f be 1b 8f 25 3e 88 ad a6 bd
       -0.24442361 -0.21790142 0.16167872 -0.08138567
0000b0 4d 01 1c be e0 3d 1b 3d e3 5c 9a 3e c0 4f 42 be
       -0.15234871 0.037900805 0.30148992 -0.18975735
0000c0 dd f7 02 3e 11 e4 50 3d 2c da 1d 3e df 9d d2 3d
       0.12789865 0.05099875 0.15415257 0.10284018
0000d0 65 e9 05 bc 33 8d 64 bd b9 af a4 ba 02 d7 89 3e
       -0.008173321 -0.05579872 -0.0012564576 0.2692185
0000e0 12 21 fc bb e3 f8 de 3d cf 85 72 3d 3e 73 2c bc
       -0.007694372 0.10887315 0.05920964 -0.010525523
0000f0 c1 d4 64 be 8d e3 4d be 62 44 3c 3d f5 12 4b 3e
       -0.22346784 -0.20106335 0.045963652 0.1983145
000100 66 61 1f 3e 62 b8 9d 3e 7c a0 5a 3d c9 03 0b 3d
       0.15564498 0.30804735 0.053375706 0.033939157
000110 8f 07 0d 3e ec 42 78 bd ee eb ea 3c 9f 0a db 3c
       0.13772415 -0.060610697 0.028676953 0.026738463
000120 8c 3a 3f 3d a4 bd 29 be 94 6b 29 be 4f a8 8d bd
       0.046686694 -0.16576248 -0.16544944 -0.06916868
000130 4b 2f 53 be 3a e6 cd 3d c4 e3 30 3b a6 4e 33 bd
       -0.2062351 0.10053678 0.0026991228 -0.043776177
000140 bd 96 3e 3e d7 af cf 3b 4f 9f ba 3e 9e 52 ab 3e
       0.1861219 0.0063381004 0.36449668 0.3346147
000150 cc 3d 8f bd 49 07 87 3e 81 50 93 bd 94 b9 0f 3e
       -0.06994209 0.26372746 -0.07193089 0.14035636
000160 36 c2 bb 3d 17 e6 43 3e 35 74 89 3d 59 70 38 be
       0.09167902 0.19130741 0.06711618 -0.18011607
000170 aa fd a4 3c bd 5d 55 3d dd a0 b8 bc 23 82 78 3d
       0.020140488 0.05209135 -0.022537643 0.060670983
000180 b7 e7 0d be 4c c4 7e 3d f6 d9 d2 bd fa e7 ae bd
       -0.13857923 0.062198922 -0.10295479 -0.0854034
000190 4a ba 2f be b7 4b e2 3d eb a1 3e be 55 5c ae 3e
       -0.17160907 0.11049598 -0.18616454 0.3405482
0001a0 7e 5c 02 3e 94 ef 0b be 41 05 83 be 1a bc ae 3b
       0.12730595 -0.1366561 -0.25589946 0.005332482
0001b0 ce 0a 06 3e 95 7f 59 3d 54 42 9d bd bd a9 4a be
       0.13090059 0.053100187 -0.07678667 -0.19791313
0001c0 f7 aa 94 3d 56 4b 5c bd 24 ee 46 bd 56 31 b8 bd
       0.072591715 -0.053782783 -0.048566952 -0.08993785
0001d0 57 06 a9 ba 33 15 2f bb 77 5a 1a 3e dd 1e c3 3e
       -0.0012895566 -0.0026715517 0.15073572 0.38109484
0001e0 3d b6 69 3d 6a 91 db bd 48 b7 6e 3d b5 88 75 be
       0.05705856 -0.10721095 0.05828026 -0.23977931
0001f0 51 7a 03 3d 8a 6d 53 3d 37 87 5f bd c9 3f 79 3d
       0.032099072 0.051618136 -0.05457231 0.060851846
000200 98 e6 b6 3d 7c 2c b2 3e 38 1b 73 3c b0 6c 2b 3e
       0.08930701 0.34799564 0.014838032 0.1674068
000210 92 37 12 3e a8 66 a3 3d de d3 ba 3c de aa fa ba
       0.14279011 0.079785645 0.022806104 -0.0019124409
000220 ba b2 e6 3c 38 da 3c bc 7e 35 b3 bd f0 87 5b bc
       0.028161395 -0.011526637 -0.08750437 -0.013399109
000230 51 d1 7d 3d 9e 2e 45 be 6b 50 c5 3d bc d3 c0 3d
       0.061967198 -0.19256064 0.09634479 0.09415385
000240 92 ce c3 bd cd b7 41 bd 2a b3 d3 3d d2 fd 22 3e
       -0.095608845 -0.047294427 0.10336907 0.15917137
000250 3c 8c bb 3d 4c 19 ec bd eb d8 8d bd 0a 3e 11 bd
       0.09157607 -0.115282625 -0.069261394 -0.035459556
000260 bd 99 6b 3d cc b2 26 3d e8 66 b8 bd b0 20 cd 3c
       0.057519663 0.040697858 -0.09004003 0.02504
000270 90 7a 0b 3e 9f a3 82 3e 13 dd 10 be 0a 36 95 be
       0.13620973 0.25515458 -0.14146833 -0.2914279
000280 5d e6 d6 bd 15 f1 82 3e 4a 4c d9 bb 09 04 83 bd
       -0.10493157 0.25574556 -0.006631409 -0.06397254
000290 57 c8 d9 3d 7e 9c 8f 3e 1f 91 52 3e de 3f 34 3e
       0.10633915 0.28049082 0.20563172 0.17602488
0002a0 63 70 16 bd 49 19 b0 3c 50 85 05 be 1b b5 8f 3d
       -0.036728274 0.021496432 -0.13039136 0.07016965
0002b0 c3 61 9b 3d ff 29 af 3d fa d7 7e bd 97 cc 80 3d
       0.07587006 0.08552932 -0.06221769 0.062890224
0002c0 b5 7b 51 bd 8a 70 1c 3e eb 2c a8 3e 4a 45 b5 3d
       -0.051143367 0.15277305 0.3284677 0.088511065
0002d0 a8 9e f7 bd 69 98 9a 3d 34 dd 97 3d 17 13 c0 3e
       -0.12090808 0.07548601 0.07415238 0.37514564
0002e0 36 95 46 bb c7 cb b9 bd 05 38 d5 bc d5 cb 37 bd
       -0.003030134 -0.090720706 -0.026027689 -0.044872124
0002f0 2b 13 26 3e 7d 06 51 3d 0e 74 6f bc b1 1f 09 be
       0.1621825 0.05103158 -0.014615072 -0.13390996
000300 9a 7e 82 3e 88 b1 88 3b 17 1e 35 3e 0a 9d 95 bd
       0.25487214 0.004171554 0.1768726 -0.073053434
000310 18 b3 8a 3e 7a eb 12 be 5c 7d d2 bd d8 ec 3c be
       0.27089763 -0.1434764 -0.10277817 -0.18449724
000320 44 2e 23 bd b1 8a 89 bc 98 bc a0 3d a3 88 b4 3c
       -0.039839044 -0.016789766 0.078484714 0.02203781
000330 db d6 dc bc 14 52 ae bd 2f c5 16 3d 2a 28 10 3e
       -0.02695792 -0.08511749 0.036809143 0.14077821
000340 fe 78 a5 3e 1e db 4b bc 9e b0 cd 3e 39 03 3a 3e
       0.32318872 -0.012442378 0.4017381 0.18165292
000350 e5 b9 0e bd 16 a2 0c 3e b6 25 16 3e 76 b5 ff 3d
       -0.03484525 0.13733706 0.14662823 0.12485783
000360 81 18 41 bd ee fd 56 3d 25 95 88 3e 80 78 26 be
       -0.04714251 0.05248826 0.26676288 -0.16256905
000370 7b 93 36 be 34 fd 52 be 13 b7 9e 3e 9e 86 aa 3e
       -0.17829697 -0.20604402 0.3099905 0.3330583
000380 e3 35 3f be b1 7a 79 3e 14 1b 9f 3d 4f 66 db bd
       -0.186729 0.2436321 0.077688366 -0.10712873
000390 36 eb 84 bd 9b 35 04 3e 2d 79 10 3e 5a a3 69 3e
       -0.064901754 0.12911074 0.14108725 0.2281622
0003a0 27 b4 f0 3c 95 0d b9 bd 69 6a f5 3d b2 a1 7d 3c
       0.029382778 -0.09035794 0.11983187 0.015480446
0003b0 bd ef 9a bd 99 42 65 3c c9 7d 21 3e 81 09 ec bd
       -0.07565258 0.013992929 0.1577064 -0.1152525
0003c0 c3 a4 7c 3e 92 51 b6 3d 3b 09 96 bd 5c 9b f0 3c
       0.24672227 0.08902277 -0.07325979 0.029370956
0003d0 a2 91 13 be 08 3c 0c 3d 2a 03 d3 bb d8 05 0d 3e
       -0.14411023 0.034236938 -0.006439586 0.1377176
0003e0 8d 8b 11 be 8d ab 2c 3e 34 6b c2 bc fa ec 0d be
       -0.1421339 0.16862316 -0.023732759 -0.1385993
0003f0 cb cd 55 bd 2c c7 5d bd 22 47 94 bd 26 a5 4b 3e
       -0.052198213 -0.054145023 -0.0724013 0.19887218

lstm.weight_hh_l0 f4 [128, 32]
000000 ba 3e 59 39 a8 ac 29 be ca 1d 13 be 35 e9 ac 3a
       0.000207181 -0.1656977 -0.14366832 0.001319206
000010 9b 35 4b bc 58 db 49 3d 9e 0d 67 3e 14 7a 10 be
       -0.012402917 0.049281448 0.22563788 -0.14109069
000020 94 08 9d 3d 20 0b c5 3d 2d 50 96 3e e3 23 22 be
       0.07667652 0.096212626 0.29358044 -0.15834002
000030 8b 24 af bd b2 2b 38 3d da c3 8c 3e ad 0b 14 3d
       -0.08551892 0.044963546 0.27493173 0.036143947
000040 47 f4 62 3d c3 60 28 bc 2b 17 8a 3e ac 84 29 be
       0.055408742 -0.010276976 0.269708 -0.16554517
000050 7b c4 a0 3e 82 6d 56 be 13 0f 16 bd 22 09 d0 3d
       0.31399903 -0.20940211 -0.03663547 0.10157992
000060 d2 85 9a bd bf 3f 90 bd c3 68 70 be d8 8f fe bd
       -0.075450554 -0.070434086 -0.23477463 -0.1242978
000070 9c 47 4a 3e 64 29 b9 bd 6b 82 35 3d 6d ff 6e 3e
       0.1975388 -0.09041098 0.04431383 0.23339625
000080 26 9d 0d be 14 e7 4f bd b2 f4 f0 bd fb fa 4a be
       -0.13829479 -0.050757483 -0.11765422 -0.19822304
000090 17 fd 80 be 4f d2 03 3d c6 d1 6b 3d 81 58 bd 3d
       -0.25193092 0.032182988 0.057573102 0.092453964
0000a0 e1 b0 06 bd 6d 41 07 3d f2 4c db 3d 3e 92 95 3d
       -0.03288353 0.03302138 0.107080355 0.07303284
0000b0 e1 62 7c 3b 35 d6 1b 3e ca 04 30 3e e4 98 18 bd
       0.0038511085 0.15218432 0.17189327 -0.037255183
0000c0 9c 93 9b bd 31 b6 26 be 3a 15 e6 3d 70 cb 27 3d
       -0.07596514 -0.16280438 0.112345174 0.040965497
0000d0 64 ab 44 3e 35 2a df 3c b1 20 3b be 7b 08 27 3e
       0.19206005 0.027241806 -0.1827419 0.16311829
0000e0 8b c3 44 be 32 46 fd bd 22 07 e6 bc d4 0d 09 be
       -0.19215219 -0.12366904 -0.028079573 -0.13384181
0000f0 7a c1 63 3e a5 a2 2a be 96 91 7f 3d 30 a3 3a 3e
       0.22241774 -0.16663606 0.0623947 0.18226314
000100 40 c0 d2 3d 33 4d 2d bc e5 80 42 3c ef ea 9a 3d
       0.10290575 -0.010577488 0.011871551 0.07564341
000110 cf 22 51 bd a9 ea 80 be c6 84 b6 3d 28 ef 75 3e
       -0.051058587 -0.25179031 0.08912043 0.24017012
000120 ee c0 00 3d b5 e3 ff 3c d5 a7 47 be e7 37 2d 3e
       0.031433992 0.031236509 -0.19497617 0.16915856
000130 17 0f a0 3d 96 93 93 bd f4 35 c5 bd a8 30 5e bd
       0.07815378 -0.07205884 -0.09629431 -0.05424562
000140 c5 40 7e 3e 65 73 85 3d fa 3a 5e be d5 63 74 3e
       0.24829395 0.065161504 -0.21702185 0.23866208
000150 d2 0a 25 be 86 7c 50 3d 80 02 af bc 3a 01 49 be
       -0.16117409 0.050900005 -0.021363497 -0.19629374
000160 e4 de 37 3e f8 72 31 3e fe 4c e6 3b 9f 8c 47 3e
       0.1795612 0.17329013 0.007028221 0.19487236
000170 27 d1 4f be 23 0e b9 bc 80 1a 27 bd 66 45 d0 bd
       -0.20294629 -0.022589749 -0.040796757 -0.10169487
000180 4c 57 b2 bd bc d7 c9 3d 25 1a 5f 3d 8a ae 88 3e
       -0.08708057 0.09855601 0.054468293 0.26695663
000190 1a 30 07 bc f4 98 14 3c df 6f b9 3d 7d a9 1d 3e
       -0.008251214 0.00906967 0.09054541 0.15396686
0001a0 3b 16 73 be 8b ab 14 3e e3 57 7f bd cc c5 0b 3e
       -0.23738949 0.14518563 -0.062339675 0.13649672
0001b0 3b 5c 98 3e 16 b4 a2 be e8 d3 c0 3d 95 21 2f be
       0.29757866 -0.3177802 0.09415418 -0.17102654
0001c0 26 12 12 3e af b1 89 3e 0a db 61 be e2 3d 01 3e
       0.14264736 0.26893374 -0.22056213 0.12621263
0001d0 90 01 60 be c1 4b 03 3d f1 4c 4b 3e c5 52 37 be
       -0.21875596 0.032054666 0.1985357 -0.17902668
0001e0 9d c7 a4 3d 3e 3f 22 3b b3 da 38 bd c4 9e 3f 3e
       0.08045886 0.0024756934 -0.045130443 0.18712908
0001f0 1e a6 9a be 2e 81 cc 3d e5 cf 2c bc 6d d4 92 be
       -0.30204862 0.099855766 -0.010547613 -0.28677693
000200 c5 aa d5 bd 69 cf 07 3e 0a e9 50 3e 32 74 b9 3d
       -0.10432962 0.13262714 0.20401397 0.090553656
000210 51 09 55 3d 5c a4 b0 3c 9f a7 9a 3b 3b 7c b6 3d
       0.052010838 0.021562748 0.004719689 0.08910414
000220 3f de db bd 23 cd 05 bc 44 56 0d be fc 47 16 3d
       -0.107357495 -0.008166584 -0.13802439 0.036689743
000230 77 bd fa bc 7b e5 97 be eb 02 85 bd ea a1 40 bd
       -0.030607922 -0.29667267 -0.06494697 -0.047029413
000240 fd 17 83 3e f6 e4 78 3e b4 b4 b8 bd 0d d6 92 3e
       0.2560424 0.24306092 -0.090188414 0.28678933
000250 c2 d1 52 be 67 62 12 bd 14 f9 f7 3d 03 91 bb bd
       -0.20587829 -0.035738375 0.12108055 -0.09158518
000260 55 32 69 3e 76 56 fe 3d be f7 73 3b 52 85 54 3e
       0.22773106 0.12418835 0.0037226523 0.20753983
000270 ab ea 82 be 9c b0 dd bd 84 18 f8 3c f7 f5 1d be
       -0.25569662 -0.10824701 0.030285127 -0.1542586
000280 08 b9 d4 bd 92 d8 09 3e 38 d6 62 3e cb 6d 3d 3d
       -0.103868544 0.13461521 0.2215203 0.046247285
000290 1b 06 26 3c a8 82 65 be 5c 47 b0 bd d9 72 8f bc
       0.010133292 -0.22413123 -0.08607361 -0.017510818
0002a0 8e 8f 82 3c 2a 56 9d 3d eb 1c b6 bb 96 98 b9 3c
       0.015937593 0.0768245 -0.0055576465 0.022655766
0002b0 e8 34 73 3e 57 9e fe bd eb 3a 95 be f6 8f ba 3d
       0.23750651 -0.12432545 -0.29146513 0.091094896
0002c0 42 ff 27 3e 86 3f 17 3e 1b 99 17 be 65 b7 42 3e
       0.16405967 0.14770326 -0.14804499 0.19015272
0002d0 6c 62 a9 bc d1 70 08 bc 87 26 5d 3e 4c 45 ff ba
       -0.020676814 -0.008327679 0.21596728 -0.0019475608
0002e0 9f 9d c9 3d 82 5b 95 bd e4 50 85 bd e4 e6 2c 3e
       0.09844517 -0.07292844 -0.06509569 0.16884953
0002f0 cb 08 ef bd eb 24 09 bd 30 26 13 be ea fa b5 bd
       -0.11671599 -0.033482473 -0.14370036 -0.08885749
000300 bc c3 3d 3e 1a 06 bc 3c f7 fc 87 3d 3c 00 62 3c
       0.18531698 0.022952128 0.06640046 0.013794001
000310 52 ef e0 3d 1a a1 c3 bd 94 fd 02 be 0d 60 4d bd
       0.10983147 -0.09552212 -0.12792045 -0.05014043
000320 c7 e0 84 3d d4 c1 33 bd 4c 00 ed bc 3e 4c 13 3c
       0.064881854 -0.04388602 -0.028930806 0.0089903455
000330 c9 6f 89 bd 39 0f 74 3d 37 bd 31 be 84 50 d5 bd
       -0.067107745 0.05958483 -0.17357336 -0.10415748
000340 58 d4 a5 bd 5b 12 ac 3d 74 cb f2 bd 90 8d 3f 3e
       -0.08097142 0.084019385 -0.11855212 0.18706346
000350 37 f7 1c be 75 ae 57 be cb c1 08 bd f7 e6 92 3d
       -0.1532868 -0.21062644 -0.03338794 0.07172959
000360 02 20 da bd d8 07 d6 3d 18 ee 28 3e 61 47 ae bc
       -0.10650636 0.10450715 0.16497076 -0.02127427
000370 e3 6e 23 3d b4 ce 76 3e f0 07 37 bc f6 92 0d be
       0.03990067 0.24102288 -0.011171326 -0.13825592
000380 ac 55 d7 bd c2 89 17 3d 91 57 06 bd 1d f9 80 3e
       -0.105143875 0.03699661 -0.032798354 0.25190058
000390 37 f6 99 3d 11 9d db bc d9 73 60 3d 1d c1 bf 3d
       0.07517665 -0.026808294 0.05479798 0.09363005
0003a0 ce 91 72 be fe 75 89 3e f4 88 3b be 80 02 84 3e
       -0.23688433 0.26847833 -0.18313962 0.25783157
0003b0 3b 99 d3 3d 53 7f 1a be 7d 99 17 be bb 55 66 bc
       0.10331961 -0.15087633 -0.14804645 -0.014058526
0003c0 0d b9 a4 bc 01 dd e9 3d 54 38 06 be e7 9a 85 3d
       -0.02010777 0.11419106 -0.13107425 0.06523686
0003d0 01 a1 e5 3c ff 8c 73 3c c7 f2 c3 3d 8d fc 30 3d
       0.028030874 0.014865159 0.095677905 0.0432096
0003e0 26 ae 1d 3e c8 75 5a 3e 7a 29 c3 3d fe 94 52 3d
       0.15398464 0.21333992 0.095293954 0.05141162
0003f0 34 b2 bc bd 5f d0 7d bd 41 32 b1 bd 05 c2 59 bc
       -0.09213677 -0.061966296 -0.08652163 -0.013290887

lstm.bias_ih_l0 f4 [128]
000000 eb 38 f4 bd 30 83 6f 3d 60 c2 88 3d b9 39 19 3e
       -0.11924919 0.05847472 0.06677699 0.14963426
000010 d9 3d e3 3d f0 67 b5 3d ec 5c b7 bc d3 fd 94 3e
       0.11095781 0.08857715 -0.022383176 0.29099903
000020 fe d1 1f 3d 79 3f dc 3c 56 0b 71 3e fd 02 69 3e
       0.039018624 0.026885735 0.2353948 0.22755046
000030 55 9a 2d 3d b2 ed 50 bb 47 1b ac 3c 3e b6 58 bc
       0.04238351 -0.0031879959 0.0210091 -0.013227044
000040 d3 6b 55 3e 48 78 34 3e a0 ca e9 3d 87 dc 5d 3c
       0.20841913 0.17624009 0.11415601 0.013541347
000050 ca 2b 6b 3d 96 21 36 3d 2e 08 0d bd b8 9c 97 3e
       0.057414807 0.044465624 -0.03443163 0.29611754
000060 2b 06 16 3e 7c 68 2a be 01 42 0f 3d ef 62 dd 3c
       0.1465079 -0.1664142 0.034975056 0.027024714
000070 2e df 48 3d 53 d7 5c be fd 38 4d 3e af 70 4d 3e
       0.049040966 -0.21566515 0.2004127 0.20062517
000080 5e 23 be bd 13 72 01 be 25 96 6b 3e eb 9f 43 3e
       -0.092840895 -0.12641172 0.23006494 0.19103973
000090 f2 fe 33 3e 64 92 98 3e 04 f7 76 3d 65 f4 9e 3e
       0.17577723 0.29799187 0.060294166 0.31045833
0000a0 be 5d 03 3e 8d b2 db 3c a0 30 34 3e ae 57 20 3d
       0.12828729 0.026818538 0.17596674 0.039146118
0000b0 be 19 83 3e 5d 80 86 3e b4 f3 9f bc 95 86 fe bd
       0.25605577 0.26269808 -0.019525386 -0.12428013
0000c0 6a 00 3b 3e b5 c7 57 3e ef 93 ff 3b 53 b5 3d 3c
       0.18261877 0.21072276 0.0077996175 0.011578876
0000d0 5a a0 28 3d a7 0f 17 bd c5 15 9e 3e fc 67 89 3e
       0.04116855 -0.03688016 0.30875984 0.26837146
0000e0 d2 d9 14 3d 03 68 4a bd 03 50 4c be ac 69 3f bd
       0.036340542 -0.0494156 -0.19952397 -0.046731636
0000f0 9d 96 ff ba 90 90 82 be fc 0b af 3d 3d c8 a1 3e
       -0.0019499842 -0.25500917 0.08547208 0.31598082
000100 9a 59 1f 3e cf 38 47 3e c5 a7 9b 3d ec 1e 88 3e
       0.15561524 0.19455265 0.07600359 0.26586092
000110 1c 99 94 3e 51 0a 7c be 91 06 19 be 67 8c 07 bc
       0.29023063 -0.2461331 -0.14943911 -0.008273221
000120 4f 2a ca bd 8a 5b 49 3e 5b b6 1f be 70 8a 85 3e
       -0.09871351 0.19663826 -0.15596907 0.26082182
000130 ec bb 19 3e ac 16 8c be ad 37 f6 3d 34 e0 01 3c
       0.15013093 -0.27361047 0.12022338 0.007926989
000140 df 4d 5f 3e 60 99 24 3e b3 d5 5c 3e 87 ff 16 3e
       0.21807049 0.16074133 0.21565895 0.14745913
000150 68 7e 9e be 19 9e a3 bd 1d fa fa 3d f3 f6 4b be
       -0.30955815 -0.07989139 0.122547366 -0.19918422
000160 b5 b7 8f 3e 7f b5 44 3d 71 1d 01 3e b9 fd 12 3e
       0.28069845 0.04802465 0.12608887 0.143546
000170 10 cb a1 be 3b e1 db bc 2b 5b 30 be e1 26 98 be
       -0.31600237 -0.026840797 -0.17222278 -0.29717162
000180 2b 46 59 bc bc eb a9 3d 3b 13 97 3b 2e d3 70 3e
       -0.013261358 0.08296916 0.0046104467 0.23518059
000190 3f ca 8f 3e 95 9e 6e bd 86 1a 57 3d cf f0 df 3c
       0.2808399 -0.058256704 0.05251553 0.027336506
0001a0 39 da f5 3b d5 57 4a 3d b3 3b 2d 3e b7 4e 03 3d
       0.007502821 0.04940017 0.16917305 0.03205749
0001b0 7b 21 c4 3b 8e 8a 87 3e 58 32 16 be b0 a2 27 3e
       0.0059854365 0.26472896 -0.14667642 0.16370654
0001c0 c4 07 a6 3d b8 76 64 3e 58 ee c9 bd bb 92 6b 3c
       0.0810695 0.22310913 -0.098599136 0.014378245
0001d0 6f ca b3 3c 4f 0e 8f bd 0d 63 f3 ba 55 bf 52 3e
       0.021947114 -0.06985151 -0.0018568948 0.205808
0001e0 70 79 8e 3e 8d 30 40 be 3f 58 f1 bb 83 61 53 3e
       0.27827024 -0.1876852 -0.007365256 0.20642667
0001f0 10 46 67 3e 63 4a 14 be ce 65 97 bd 60 66 6e 3e
       0.2258532 -0.14481501 -0.073924646 0.2328124

lstm.bias_hh_l0 f4 [128]
000000 d0 b3 12 be 29 c7 15 3c f7 18 24 3e 52 47 f4 bc
       -0.14326406 0.009141722 0.16025148 -0.029819164
000010 01 4f 56 3e 36 fa 9e bc 03 4a 89 bd fe 59 cb 3d
       0.20928575 -0.01940642 -0.0670357 0.09929274
000020 63 cc 48 3e aa db 00 3e d0 c1 29 3e dd 8f 20 3e
       0.19609217 0.12583795 0.1657784 0.1567988
000030 64 29 87 3e 33 fa fe 3b a5 db cb bb 38 96 ef 3c
       0.26398766 0.007781291 -0.006221252 0.029246435
000040 0e 26 6a 3e e1 76 8e bc 2f 59 47 3d ec ba 3c 3e
       0.22866079 -0.01739067 0.048669036 0.1843068
000050 ea c2 b7 3d 95 1e 1e be fb 3a 36 3e b2 d8 74 3c
       0.08972724 -0.15441354 0.17795937 0.014944242
000060 c4 a9 a4 3e 99 a1 8d be db 51 23 be 37 33 62 bd
       0.3216077 -0.27662352 -0.15949194 -0.055224624
000070 73 e4 ae 3d d1 4a 1e be 62 55 4b 3e 88 bf 74 3e
       0.08539667 -0.15458228 0.1985679 0.23901188
000080 22 f2 fc 3b 2b 0d 24 bd e3 3f 1c 3e d1 8a 4e 3e
       0.007719294 -0.04005162 0.15258746 0.20170142
000090 9a a4 d3 3d c1 ce cf 3d 5b f7 4e 3e 75 ce 36 3e
       0.1033413 0.10146857 0.20211546 0.17852195
0000a0 76 05 96 3e 70 0a 3f 3d 16 71 4f 3c 0d e9 46 3e
       0.2930104 0.046640813 0.012661239 0.1942484
0000b0 a8 39 91 3e fc 15 a4 3e cb df 97 3d 3b 4b c6 bd
       0.283643 0.32048023 0.07415732 -0.09682318
0000c0 71 90 3f 3e 48 b1 de 3d 89 5a b0 bd 2e 8f f2 3d
       0.18707444 0.108736575 -0.08611018 0.118437156
0000d0 6b 37 6f bb dd 13 23 3d 7c 65 9b 3e 3c b2 31 3c
       -0.0036501538 0.039813865 0.30350864 0.010845717
0000e0 4a 6d 7a 3e e1 9c 95 bd 49 78 b2 bc 38 8e 9c 3d
       0.24455753 -0.07305313 -0.021785872 0.076443136
0000f0 d4 00 8b 3e b6 86 c4 bd 2c 07 78 3d 8a 44 c2 3d
       0.2714907 -0.095960066 0.060553715 0.09485729
000100 04 97 2b bd c9 ba 2a 3e 6a 96 7a 3e f5 84 4b 3e
       -0.041892067 0.16672815 0.24471441 0.19874938
000110 82 c0 88 3d 02 72 8b bd 46 82 5e be d1 11 81 3e
       0.06677343 -0.06808855 -0.21729383 0.25208905
000120 d2 3b 97 be 20 9d 96 3e 8c 83 fc bd df 17 81 3e
       -0.29537827 0.29416752 -0.12329778 0.25213525
000130 c7 85 9b 3e 20 fe 9c be 74 c2 8c bc ea 67 64 be
       0.30375502 -0.30662632 -0.017182566 -0.22305265
000140 bf 72 12 3e e0 d1 7e 3e 8f 6c 1f bd 5a d1 68 3e
       0.14301585 0.24884748 -0.03892189 0.22736111
000150 75 4d 28 be f6 83 07 3e 41 38 96 3e b6 2e e2 bd
       -0.16435798 0.13233933 0.29339793 -0.11044066
000160 c2 13 84 3e a4 f4 14 3e d9 09 f2 3d 7b 11 19 3e
       0.25796324 0.14546448 0.118182845 0.14948075
000170 b1 08 76 be e8 31 65 3e eb f5 52 be 71 39 a2 be
       -0.24026753 0.22382319 -0.20601623 -0.3168445
000180 87 66 49 be f5 a5 11 be b4 99 3b 3e af b4 a8 3d
       -0.19668017 -0.14223464 0.18320352 0.08237588
000190 3c c2 35 bd e2 0f 13 bd d5 c6 ab bd 0a a8 70 39
       -0.04437469 -0.03590382 -0.083875336 0.00022950783
0001a0 2d 07 c0 3d 86 ea 03 bd 17 66 5b bd 77 f5 c5 3b
       0.09376369 -0.03220608 -0.053564157 0.0060412246
0001b0 c4 46 5c 3e 30 86 9e bc 3e 7e 4f be 86 df cc 3b
       0.2151137 -0.019351095 -0.20263001 0.006252232
0001c0 0a 7a 15 be d6 61 ad bd 4e 4b d3 bd 49 d7 b7 bd
       -0.14597335 -0.08465926 -0.103170976 -0.08976609
0001d0 15 90 a5 bd f1 a6 07 bc 87 7b 80 3e 60 ae de bb
       -0.08084122 -0.008279548 0.25094244 -0.0067956895
0001e0 00 6a db 3b fc 5e ce bd 3c b2 72 3c be 58 2e 3e
       0.006695986 -0.100767106 0.014813002 0.1702604
0001f0 a7 c8 e9 ba 5f 14 e9 bd dc d7 4e bd e3 4b 99 3d
       -0.0017836288 -0.113808386 -0.05049883 0.07485177

fc.weight f4 [1, 32]
000000 e6 61 a3 bc 6a 41 20 bd 14 48 68 be 40 a5 79 be
       -0.019944143 -0.039124884 -0.22683746 -0.24379444
000010 4f 46 86 be ee d4 f2 3d 06 d1 eb bb f6 6c 3c be
       -0.26225516 0.11857019 -0.0071965484 -0.1840094
000020 14 b7 b7 3d 52 0c df bd 31 f8 c9 3c e5 56 78 be
       0.08970466 -0.10891022 0.02465448 -0.24251898
000030 f2 bb 37 be 84 81 82 3e 30 d0 37 3c d1 80 c9 3c
       -0.17942789 0.25489438 0.011219069 0.024597557
000040 5a b9 52 bd 86 22 ff bd 46 e8 86 bd 58 39 2a be
       -0.051446296 -0.12457757 -0.065872714 -0.16623437
000050 18 87 34 3e d7 7a 9f 3c 86 94 6a be fe cd 1b 3e
       0.17629659 0.019467754 -0.2290822 0.15215299
000060 87 b1 6b be ee c0 80 bd 47 56 2e 3d 74 39 1d be
       -0.2301694 -0.062867984 0.04256275 -0.15353948
000070 0f bf e2 3d 88 50 61 bd f7 3c 03 3d 75 02 e4 3d
       0.11071598 -0.05500844 0.032040562 0.11133281
