app_config_files/lstm_NRL.pth (torch, 21034 bytes, 5 tensors)

lstm.weight_ih_l0 f4 [128, 2]
00000000: 2a5a 473d e9a5 a03e 22d3 323d d756 173e
00000010: f6a5 9abe a2c8 99be c02f 933e 315f 293e
00000020: 6d74 a3be a260 63bb 4d4f f0bd 1225 47bd
00000030: a807 97bd 128c ae3d 4895 3e3d 7841 babc
00000040: 14c8 c93d 7f2e 85bd bdbe 71be 76b9 46be
00000050: a890 a33e b298 0e3e 87d0 72be 7bde 153e
00000060: 8d06 313e 81a0 353c 925a 6a3e 84b8 d1bb
00000070: 3d4b 8fbe f87f e2bc d3d1 debd f09c 23be
00000080: 42f3 673c 65e9 2fbd 3e85 1f3e 0fbc 893e
00000090: 8742 66be af86 45be e4ea 64be 77f3 07be
000000a0: 422a 80be bb2f 143e 2e75 5fbe 3625 cc3d
000000b0: d958 b7bb fb88 82bc 4891 70be 544a 8ebe
000000c0: 8395 09be a700 c23d 0730 82be 7bae 4cbe
000000d0: f947 833d ef90 92be 0c67 ba3d b41e f23b
000000e0: 6675 3b3d 1fd2 abbd 2096 7e3e 3099 703e
000000f0: 4d2f cebd a754 e23d a05b c43d 8df4 d83c
00000100: c474 8f3e 7734 433e 77b5 29be 9d3b 84bb
00000110: eb6e 843c 173d 3cbe 531a 01bd c253 8a3e
00000120: 4410 8b3b 0712 a3be 28c2 ca3d 94c8 43be
00000130: 4e03 163e 5f57 4f3c 12c3 d53d 5c95 243e
00000140: a9b3 b1bd 555e 1fbe 0497 543e 0c84 85be
00000150: ceea 72be 62c6 b1bd 9a41 05bd 08b8 ffbd
00000160: 8250 573e 209d 063d 5fdd e53b 6a0e f13d
00000170: ada5 eb3d c29a f4bd 59cc 8f3d 009d 97be
00000180: b24d 6c3d 3359 df3d b775 4a3d c7d4 d43d
00000190: efc9 9c3e b4d9 d53c 41c7 1a3c 9ed7 343d
000001a0: 07b3 903e dfb1 eb3c 90db 073d 526a 2b3e
000001b0: eecd a5bc 2f81 07be b915 6c3e 2c44 b4bd
000001c0: a154 ddbd ee08 8dbd 4e65 0b3e a87b a3be
000001d0: 810f 353d d1e5 c5bd 4023 703e 08e0 53bd
000001e0: d07c e23d 1f23 843e 7339 16bd 4290 af3d
000001f0: 00a5 06bd a4d3 a23e 3d1f a1bd 8f5e d6bd
00000200: a9a4 103d 0c17 8a3e 2467 bebd b7bc ee3d
00000210: 7550 efbd aadb 98be 6c59 273e d4ee a23c
00000220: ce3b 4f3e 37ad 1ebd 4ca0 5d3c ca4a 853c
00000230: 7230 2dbd f29a b13d eb5d d43d b8fa 8b3b
00000240: a45d ca3d f873 843d 0dd1 143d a9d6 6bbd
00000250: e528 0fbe 3c41 ae3c 6525 8a3c 8370 36bd
00000260: acf9 16be 5a03 873d 5a26 083e 0188 9e3d
00000270: 73f8 db3d 8f57 76bc cc25 98bd 608b 183d
00000280: 4e3a 12bd 3897 113d bdfb 98be 9125 5dbe
00000290: d198 9ebd f3ce 6bbd 46b0 f73d b2f7 b83d
000002a0: bd66 8cbc 2773 c23c 83e6 ffbd 6294 9238
000002b0: 0bc0 13bb 2b88 883d 961c 023e 3b2d 853c
000002c0: 8a97 243e 8f7d 15be 7faa 8dbd d58e e3bd
000002d0: 502f 6b3d 3f3c 02be e7e6 0d3e 4381 183d
000002e0: e1fd 11bd 2498 08be 917c df3d 7222 a8bc
000002f0: 4e70 a03b 7a91 f63d 71ee bbbd 7fc8 a339
00000300: d5c7 8a3e 20f6 833e a8e2 24be f93f 88bd
00000310: e31d 16be e3ad 3ebd c35f 783e 9edc 843a
00000320: 37a9 a3be dccb 4f3d 3f24 4dbe df7b 7ebe
00000330: af5b c33c 7f80 1f3d 6819 be3e 8f39 ee3c
00000340: 9648 013e cbb1 bdbc 3e08 4c3d 9e8f b8be
00000350: 559b d6bc ba09 973d 1845 0d3d 25d1 0bbe
00000360: e776 5d3e 7f2e 40be c709 e03d dfb3 443d
00000370: 0182 85be e82a 243d 5464 6c3d eadb 9abd
00000380: 630f 98bd 60b1 2c3e 3a82 1b3e 1157 c23c
00000390: 95b6 02be ede1 0dbe efea 44be c5b2 2d3d
000003a0: 35ff 7f3c f1c3 673e 9d0a 60be 6915 ac3d
000003b0: 4617 b1bc 4535 8b3d 4753 9abe 49b4 a4bd
000003c0: b2f1 6cbd ac23 43bd a7cd 8bbe b934 96be
000003d0: ffee 793d 98ca eebd 79f6 3b3e 7324 36bd
000003e0: 3803 a9bd baf2 afbc bd7b 163e 421a df3d
000003f0: 3cf1 a9bd 1564 683e 50a2 173d f44b 063d
0.04866997 0.3137658 0.043658383 0.1477922 -0.30204743 -0.30035883 0.28747368 0.16540219
-0.31924763 -0.0034695049 -0.117338754 -0.048619337 -0.07374507 0.0852281 0.046529084 -0.022736296
0.09852615 -0.06503009 -0.23607917 -0.19406685 0.319463 0.13925436 -0.2371236 0.14635651
0.17287655 0.01108563 0.22886112 -0.00640017 -0.2798709 -0.02764891 -0.108798645 -0.15977836
0.014157118 -0.04294719 0.15578172 0.2690129 -0.22486316 -0.19289659 -0.22355229 -0.13276468
-0.2503224 0.14471333 -0.21822044 0.09968035 -0.0055953083 -0.015934458 -0.2349292 -0.27791083
-0.1343594 0.09472781 -0.25427267 -0.19988434 0.06410212 -0.286262 0.09101686 0.007388914
0.045766257 -0.08389687 0.24861956 0.23495936 -0.10067616 0.110513024 0.095877886 0.026483798
0.28018773 0.19062982 -0.1657313 -0.004035427 0.016166171 -0.18382679 -0.031519245 0.27017027
0.0042438824 -0.3184969 0.099003136 -0.19119483 0.14649698 0.012655108 0.10437597 0.16072601
-0.086768456 -0.15563329 0.20760733 -0.26077306 -0.23722383 -0.08680417 -0.032533266 -0.12486273
0.21026805 0.03286469 0.007014915 0.117703274 0.115062095 -0.1194358 0.07021398 -0.2961197
0.057691284 0.10905685 0.049428668 0.103921466 0.30622813 0.026104786 0.00944692 0.04415094
0.28261587 0.028771339 0.033168375 0.16739777 -0.020239796 -0.13232873 0.23055162 -0.08802065
-0.10807157 -0.06886469 0.13612863 -0.3193028 0.04420424 -0.096629746 0.23450947 -0.051727325
0.11058962 0.25808045 -0.03667588 0.08572437 -0.0328722 0.31802094 -0.07867286 -0.10467254
0.035313282 0.26970708 -0.09297016 0.11657088 -0.11685268 -0.2985509 0.16342705 0.019889273
0.20237657 -0.03873941 0.013526987 0.016271014 -0.04228253 0.086721316 0.10369476 0.0042718314
0.09881142 0.06467432 0.03633218 -0.057577763 -0.13980444 0.02127134 0.016863534 -0.044540893
-0.1474368 0.06592436 0.1329588 0.077407844 0.10740747 -0.015035524 -0.07429084 0.037242293
-0.035700135 0.035544604 -0.2987956 -0.21596362 -0.07743991 -0.05757041 0.12094168 0.09031619
-0.017138833 0.02373655 -0.124951385 6.989461e-05 -0.0022544886 0.06666597 0.12706217 0.01625692
0.16073433 -0.14598678 -0.06917285 -0.111112274 0.057418168 -0.12718295 0.13857614 0.03723265
-0.03564251 -0.13339287 0.10912431 -0.020524237 0.0048962003 0.12039466 -0.091763385 0.00031239164
0.27105585 0.25773716 -0.16102087 -0.06652827 -0.14659838 -0.04655255 0.2425528 0.001013655
-0.31965038 0.050731525 -0.20033358 -0.2485194 0.02384743 0.038940903 0.37128758 0.02908018
0.12625346 -0.023156067 0.049812548 -0.3604707 -0.026197115 0.07374902 0.03448972 -0.13654001
0.21627389 -0.18767737 0.10939365 0.0480231 -0.26075748 0.04007998 0.057712868 -0.075614765
-0.0742481 0.16864538 0.15186396 0.023723157 -0.12764962 -0.13855715 -0.19230245 0.042406816
0.015624811 0.2263334 -0.21879049 0.08402521 -0.021617543 0.0679727 -0.3014166 -0.08042199
-0.057847686 -0.04764144 -0.27305338 -0.293371 0.06101894 -0.116597354 0.1835574 -0.044468354
-0.08252567 -0.021478046 0.1469564 0.1089368 -0.08297965 0.22694428 0.037020028 0.03278728

lstm.weight_hh_l0 f4 [128, 32]
00000000: bae1 d73d 804d 153d 5558 82be e9c7 a03d
00000010: 5d23 eb3d 616c f9bc 24f6 f73b 7672 633e
00000020: 49fb 003e cc2e debd 27e1 d63d 4701 0fbe
00000030: f501 8a3e 6372 cabd 058d 92bd 944b 9abd
00000040: 61fa 43be 6446 49be 8573 10be c285 d93d
00000050: 57d0 303d 84a5 dd3d 380c 103e fa4f 1e3d
00000060: 71b6 4ebe 9cd4 063e a109 36be 2a43 e5bb
00000070: b88f b0bd c985 633e 4d08 413e c6ce 233e
00000080: 2468 36be 1a5e 183e 84a5 d8bd 6bf6 94bd
00000090: f53b aa3d 02bd 533d 4c62 6e3d 4a52 16bb
000000a0: 915b beba 5ab8 4ebd cedb 313e 05dc 16bd
000000b0: bd9f 7ebc d9db 0c3c 2d9c 7e3e 70db 623d
000000c0: 97b7 01be 27ae 453e d9e3 14be 81fc 483e
000000d0: b24b 6c3d 0e9f debd 7027 463e a498 293e
000000e0: babe 49be 99fe 78bd d396 75be e828 6bbd
000000f0: eb5d 3d3e 207a a03d d054 2bbe 01ff 55be
00000100: 0bfd 48be c03d 0cbe 1c55 cc3d da4f f5bd
00000110: 0ca1 0cbe 369c a5bc a16d af3c 67b0 02be
00000120: 31ee 30be c077 e03d 96ae 753d 56d7 043d
00000130: a052 ffbc b7ed 223b 324f 693e 4310 03bd
00000140: 0861 143c 3551 1a3e 7f5b 473d 792b 8e3e
00000150: 4a19 7c3e 2e37 56be 929d ff3d 3249 eb3c
00000160: b07f 10bc 231b 85bd b966 aabb 6666 9cbe
00000170: 9b99 923e 36a2 9cbd a85f 38be d7de 1cbe
00000180: e61a ad3d d02f 0d3c 1d43 30be 14b7 653d
00000190: 8ebb 86bd 46f8 61be 65c9 5bbe 5468 db3d
000001a0: b2bd bbbc 2689 f73d ede4 debd 682c 5c3e
000001b0: 0421 5e3d c158 223e 0300 3d3d e989 43bd
000001c0: dfae 393e 1625 89be c28c 1e3e 7396 95bc
000001d0: 9d85 92bd 7331 573e cab7 833c e227 5abc
000001e0: 9ceb 1cbe 132b 983e 10d9 a2bd c3dc 4a3e
000001f0: 6e9e 03bd 7216 c3bb 8a01 bd3d 720d 923d
00000200: 4aff 033d 3ca8 303d 3e83 823d 8cfe 84bd
00000210: b0aa 1ebe 6888 523d da78 dcbc 4ebb 5f3e
00000220: 0435 b63d 2349 0ebb 18eb 0cbe 6c86 c33c
00000230: 332e 01be 9384 d5bb 58de 21bd a4da 0a3d
00000240: b924 0dbd fc75 ccbd 57ea 263d d1df c5bd
00000250: 6e49 7dbe 56f7 6e3c cac6 883d dbf5 b6bd
00000260: 47f5 2dbd 5f64 343e 3410 32bd bae2 243e
00000270: 369f 2d3e 1cea 343e 4b22 583d 1fed 9fbc
00000280: c634 a2bc ff0d 03be 6403 1f3d 41a8 313e
00000290: 11bb 34bd 59f2 223d f2e2 69bd 4bf7 c1bd
000002a0: 8bea 8c3e dd6e 983e a177 27be e537 843e
000002b0: b91b 493d 1b4a 213e 6141 26be 53c3 71be
000002c0: e04b 8c3e 2374 a9bd cd5a f73b ae86 88be
000002d0: 97bf 313d cad3 2f3e 7cfe 43be 82de bfbd
000002e0: e7a0 eb3d 02d0 ca3d 94af 013e 3dc3 4bbd
000002f0: d19f 243d 6e1b d23d 1371 293e 5586 3b3e
00000300: fb6e 033e 8485 85be d76e 9abd f837 113e
00000310: 3be9 ecbd 71a5 7c3d c923 98be c3ea 4a3e
00000320: 2d85 aebb fd4c 5d3e 7c5c d7bd 0aac 04bd
00000330: 2c81 c2bd fefa bb3d f8e8 29be 11bd f93c
00000340: 7e42 1e3e ba9d 8a3a 4158 1f3e 1ebe 26be
00000350: f86f fabd b6b7 973c 0a74 37be fcb5 2ebd
00000360: 9e5a 40bc 4e3a c2bb 6741 8d3e 9426 363d
00000370: 1933 3ebe 51e0 9b3e 450e 993e c629 a43e
00000380: 00e4 81bd 789b 8c3e 4246 333d 63ac 653e
00000390: 86eb 5ebe 81e1 d4bd 3180 84be 73c5 723e
000003a0: d111 2cbd 09d0 3d3e 209e 42be f99b 7f3e
000003b0: 7f62 68bd 2998 5e3c dd2e 0dbe 3d9b 90be
000003c0: 6094 e83d 70f1 75be 6628 ff3d f3fc cbbd
000003d0: 2241 28bd 4e5d 4a3e 4bd2 01be c827 f03d
000003e0: 15ad 57be f5f7 173d 36f7 d33d 5697 093e
000003f0: efe4 513d 5e0d ef3d 7438 8e3e 182a 8a3e
0.10541101 0.036450863 -0.25458017 0.0785063 0.114813544 -0.030447187 0.007567184 0.22211632
0.12595858 -0.108487695 0.10492163 -0.13965331 0.26954618 -0.09885099 -0.071558036 -0.07533947
-0.1913848 -0.19655758 -0.14106567 0.106212154 0.04316744 0.10822585 0.14067161 0.03865049
-0.20186783 0.13167042 -0.1777711 -0.006996532 -0.08621162 0.22219004 0.18850823 0.15996847
-0.17813164 0.14879647 -0.105784446 -0.07273563 0.08312217 0.051693924 0.058199212 -0.0022937232
-0.0014523139 -0.05046878 0.17369005 -0.03683092 -0.015541014 0.008597338 0.24864264 0.055385053
-0.1266769 0.19304715 -0.14540042 0.19627573 0.057689376 -0.10870181 0.19350982 0.16562134
-0.19701663 -0.06078968 -0.23983316 -0.057412058 0.18492858 0.078357935 -0.16731572 -0.20898058
-0.19627778 -0.13695431 0.09977171 -0.11978121 -0.1373331 -0.020216089 0.02141458 -0.12762605
-0.17278363 0.109603405 0.05998095 0.032431923 -0.031167328 0.0024860927 0.22784117 -0.03199793
0.009056337 0.1507004 0.04867124 0.27767542 0.24619022 -0.20919487 0.12481226 0.028721426
-0.008819506 -0.064993165 -0.005200234 -0.30546874 0.28632817 -0.07648127 -0.1800524 -0.15319382
0.08452396 0.008617356 -0.17213102 0.0560828 -0.06578742 -0.22067365 -0.21463545 0.107132584
-0.022917602 0.12086706 -0.10883508 0.21501315 0.054230705 0.1585417 0.04614259 -0.047738943
0.18133114 -0.26786107 0.15483382 -0.018260216 -0.07154391 0.21014957 0.016078848 -0.013315173
-0.15324253 0.29720363 -0.07951558 0.19810776 -0.032133512 -0.0059536034 0.09228809 0.07131471
0.032225884 0.04312919 0.06372689 -0.064938635 -0.154948 0.05139962 -0.026913095 0.21848795
0.08896831 -0.0021711073 -0.13761556 0.023867808 -0.1261528 -0.006516048 -0.039518684 0.03389992
-0.03445885 -0.09983441 0.040750828 -0.0966183 -0.24735042 0.014585337 0.06678541 -0.08933612
-0.042470243 0.17616414 -0.043472484 0.16102114 0.16955265 0.1766743 0.05276708 -0.019522248
-0.019800555 -0.12798308 0.038821593 0.1734934 -0.044123713 0.039781902 -0.057101198 -0.094709955
0.27522692 0.29772082 -0.16354229 0.25823894 0.049098704 0.15750925 -0.16235878 -0.23609667
0.27401638 -0.082741044 0.007548666 -0.26665252 0.043395605 0.17170635 -0.19140047 -0.09368612
0.11505299 0.099029556 0.12664634 -0.04974674 0.040191475 0.10259138 0.1654704 0.18312962
0.12835304 -0.26078427 -0.07540672 0.14181507 -0.11567923 0.061681215 -0.29714802 0.19816117
-0.0053259344 0.216114 -0.10515687 -0.03239063 -0.09497294 0.09178732 -0.16592777 0.030485662
0.15455052 0.0010575571 0.1556101 -0.16283461 -0.122283876 0.018520217 -0.17915359 -0.042654023
-0.011740355 -0.0059273606 0.2758896 0.044470385 -0.1857418 0.30444577 0.298937 0.3206312
-0.06342316 0.27462363 0.043768175 0.22429042 -0.21769533 -0.10394574 -0.25879052 0.23708133
-0.04200918 0.1853639 -0.19005632 0.24961843 -0.05673456 0.0135860825 -0.13787408 -0.28243437
0.11356425 -0.24017882 0.12458877 -0.099603556 -0.04107774 0.19762155 -0.12677877 0.11726338
-0.2106212 0.037101705 0.10349886 0.13436636 0.05124372 0.116724715 0.27777445 0.2698524

lstm.bias_ih_l0 f4 [128]
00000000: b73e 443e 040c fbbd 99d1 5bbe 4edc 013e
00000010: 9943 c83d ac91 433d 3fa2 743d 32a4 15bd
00000020: 0435 ec3c 06d6 2d3e 6310 9a3d b1d4 95bb
00000030: e483 a5bd d4f9 583d e0de 193e 21bb 2c3e
00000040: dd69 413d 6cf0 e23d 920a 913e d8d1 3a3d
00000050: 458c 963d cfdf 1c3c fcb1 ff3d 9802 9f3e
00000060: 9045 60bc dcc0 3f3e 1cb6 873e b441 523d
00000070: 59b3 043e 4f9c 6f3e 825b 993e add3 3dbe
00000080: ecf7 4cbd 42f0 3abe f734 b8bd 1261 193e
00000090: a05f 853e 8767 01bc a1af 8b3e 4a90 59bd
000000a0: 1ec2 993e babc 9f3e 8955 303e d6a2 793e
000000b0: bd2b af3d 5d85 1f3e 8b5c 0c3d a260 033e
000000c0: aa58 a23d d4dd dcbd 4ddf 4c3e 9b81 b43d
000000d0: 7154 2a3e fe77 833e 778a 7fbd d801 813e
000000e0: 2a20 9abe bf26 753d 309e 2a3e abfe 63bd
000000f0: 86d5 9b3d 9a28 943c d880 cb3d 764c 06be
00000100: fd2c 793e 100f afbd 67e4 ea3d 720f 613e
00000110: f46b 4dbe 9599 9fbe 6649 9ebe 83da 013e
00000120: ceb2 a13e 3fb1 3f3e 0c70 78be 3199 6f3e
00000130: 2dfb 053c f9bd 993e 8332 6fbe 74e8 5abe
00000140: e699 863e 2e47 d4bc cce8 2f3e 84fb 93be
00000150: a8c0 a0be 10e3 733e 00c9 b2bc 56ae 91be
00000160: b0b5 9e3d 47a5 643e 62de 493e 191f 083e
00000170: f46b 31be ce26 a33e fe39 053e 1f3b e83d
00000180: 4e0a bdbd 3047 45be a4ce bc3d 1993 923d
00000190: aa31 7f3d 4b5e 293e 7a8c 00bd d29a 4bbd
000001a0: 3736 633c 8d83 3b3e 6c58 fcbd 9abc 183e
000001b0: f118 b9bd 3130 ee3d 308d d13d b483 7f3c
000001c0: aefe 0d3e 3504 75bd 1031 853e b156 8e3e
000001d0: 3d93 513e 7fab f6bc b082 1a3d 8860 bc39
000001e0: 9af6 7ebe 1645 983c 9b52 bbbd 6fe5 b2bd
000001f0: c555 a93d 7294 e4bd 5b6c 6e3e 19d7 863c
0.19164549 -0.12258151 -0.21466674 0.12681696 0.09778518 0.047746345 0.059725042 -0.036533542
0.028833874 0.16976175 0.07522657 -0.004572474 -0.08081797 0.05297263 0.15026426 0.16868259
0.0472201 0.11081013 0.28328377 0.04561028 0.07350973 0.0095748445 0.1248512 0.31056666
-0.01368846 0.18725914 0.26506126 0.05133219 0.1295904 0.23399471 0.29952627 -0.18537779
-0.050041124 -0.18255714 -0.08994477 0.14978436 0.2604952 -0.007898218 0.27282432 -0.05311612
0.30030912 0.31198674 0.17220129 0.24378523 0.08553264 0.15578218 0.034267943 0.12829831
0.079270676 -0.10784498 0.20007057 0.08813783 0.16633774 0.25677484 -0.06238791 0.2519672
-0.30102664 0.059851404 0.16661906 -0.055662792 0.07609086 0.018085767 0.09936684 -0.13115105
0.24333568 -0.08547795 0.114693455 0.21978548 -0.20060712 -0.3117186 -0.30915374 0.12681012
0.3158173 0.18719958 -0.24261492 0.23398282 0.008177561 0.3002775 -0.23359112 -0.21377736
0.2628929 -0.025912847 0.17178649 -0.2890283 -0.31396985 0.23817086 -0.02182436 -0.2845332
0.07749498 0.22328673 0.19713739 0.13293113 -0.17326337 0.31865543 0.13010404 0.113394015
-0.09230481 -0.19265437 0.09219101 0.07156963 0.062303223 0.16539876 -0.03138397 -0.049708195
0.013867906 0.18311901 -0.12321553 0.14915696 -0.0903796 0.116302855 0.102320075 0.015595365
0.13866684 -0.059818465 0.26013994 0.27800515 0.20466323 -0.030111073 0.03772229 0.00035930076
-0.24898759 0.01858763 -0.09146615 -0.08735167 0.08268312 -0.11161126 0.23283522 0.016459988

lstm.bias_hh_l0 f4 [128]
00000000: 1d83 7f3d a146 293d 3495 66be 278d c83d
00000010: 05d7 cb3c 7319 b7bc 65cc 6a3d 56a0 363e
00000020: 5391 c43c 8515 263e 12ee 36bd a2cd 083e
00000030: 3933 633d 271b c23d 09dc 873e ea6c 82bc
00000040: 40ee 843d ce9e 443e 0d02 613c 9c11 833d
00000050: 2f94 123e 633e 993e 2d53 e03c 1624 493e
00000060: 519a a2bd e1e7 393e 3baf 2c3e 4635 ba3c
00000070: 8a47 553d c360 843e 39a5 9c3d 0bcf 80bd
00000080: 42d0 543e fe8d 663c eef9 70be 845e 9d3e
00000090: c1ba 1a3d 78b3 953e ca1d 893e 440f 913d
000000a0: 8c5f d73d 331b 3f3e ed4a 233e a879 833e
000000b0: 23db 0abe 61b6 9b3e 6352 343e 2f70 123e
000000c0: 387c ae3d 9b5b 9dbb ea81 b63d 66e2 c53d
000000d0: d644 943e d7ac 5a3e 09e8 54bd 27e9 f93d
000000e0: f05c 87be 46b5 653e de33 6e3e 8e0a a93d
000000f0: d702 e53d ed28 a2bc 4ff3 c73d 2d98 99bd
00000100: 8431 bc3d b9dd a1bd bdf5 84bd f503 a03e
00000110: 9b66 17bd a094 bcbd 67bc fbbd cae0 3d3e
00000120: 6679 903e 0a36 943e aa36 a9bd 8278 783e
00000130: 4590 70be 56af 573e dfce 84be 5763 9dbe
00000140: 6caf 843e 39db 82be 3335 133d 5ac2 96be
00000150: 5e79 11be 007a 5d3e 46f5 17be 93c4 1abd
00000160: c442 b3bd c418 c13d 95fe 1a3e 45b9 7abc
00000170: b30c 28be 3cc4 d43d 374d 7b3e 9ebd d33d
00000180: 368a 963d 751d c6bd 5efe 31bd 3971 353d
00000190: 62cd 643d fa64 893e e292 7e3e 1cc3 023e
000001a0: 137f 973d 3f23 443e 02a8 13be 0853 223e
000001b0: 55df f2bd f01f 733e 553a d63d 8f1c 46bd
000001c0: 1cd3 fd3c a7b7 24be 550d 763e 770f 0c3e
000001d0: 24b9 8a3e 5d58 07bd 22d7 36be 50d1 393e
000001e0: c393 b9bd f7c8 fb3d 9fcd d93d 1627 8bbb
000001f0: 4b0c 0fbe 013c 56bb ceb9 313e 429c 45bd
0.0623809 0.041327123 -0.22517854 0.09792548 0.024882803 -0.022351002 0.057323832 0.17834601
0.023995077 0.16219147 -0.044660635 0.13359693 0.05546877 0.09477835 0.2653506 -0.015921075
0.06490755 0.19201204 0.013733399 0.06399843 0.1431434 0.2993041 0.027383411 0.19642672
-0.0793959 0.18154861 0.1686372 0.02273048 0.052070178 0.25855073 0.07648701 -0.0628949
0.20782569 0.0140719395 -0.2353284 0.30736172 0.03777576 0.29238486 0.2678054 0.0708299
0.10516271 0.1866272 0.1594655 0.25678754 -0.13560157 0.30412582 0.17609553 0.14300607
0.085197866 -0.00480218 0.08911498 0.09662323 0.28958768 0.21354996 -0.0519791 0.122026734
-0.26438093 0.22432432 0.23261973 0.08253966 0.11182182 -0.019794906 0.09763204 -0.07499728
0.09189132 -0.07903618 -0.06492183 0.3125302 -0.036963087 -0.092080355 -0.12291794 0.18542781
0.2821762 0.2894748 -0.082623795 0.2426472 -0.23492534 0.21062979 -0.2593908 -0.30739853
0.25915086 -0.2555788 0.035939407 -0.29445153 -0.14206454 0.2162857 -0.14839658 -0.037785124
-0.08752969 0.09428552 0.15136178 -0.015302961 -0.16411094 0.10388991 0.24541174 0.10338901
0.073505804 -0.09673587 -0.043455474 0.04429743 0.05585993 0.26834852 0.24860719 0.12769741
0.07397284 0.1915407 -0.14419559 0.15851986 -0.118590035 0.23742652 0.10460345 -0.04836708
0.030984454 -0.16085683 0.24028523 0.13677774 0.27094376 -0.033043254 -0.17855504 0.18146253
-0.090613864 0.122941904 0.10634922 -0.0042466028 -0.13969533 -0.0032689574 0.17356035 -0.048244722

fc.weight f4 [1, 32]
00000000: c529 9abd 81fc 39bd 2d9a 95bd ead2 7bbe
00000010: a545 973d 5da3 393e 76cd 2c3e 3c7e 0fbe
00000020: a51e 87be 7a16 1fbe eb8a 073e 05b0 1abe
00000030: 7f5a 023d 8378 0cbe 0d09 6a3e c007 0e3e
00000040: fb7f c4bc ae37 743b b8a4 65be 7e03 0d3e
00000050: 6f48 fb3d 2813 0cbe 0732 e53d dd39 723e
00000060: c6f4 8fbc 6e1b 02be fb01 22be 63a0 bbbd
00000070: 234c f8bc ccf0 10be ce29 dcbd eb1e 58bd
-0.07527498 -0.045406822 -0.07304797 -0.24592176 0.073863305 0.18128724 0.16875252 -0.14012998
-0.26390567 -0.15535918 0.13236587 -0.15106209 0.031824585 -0.13717847 0.22855015 0.13870144
-0.023986807 0.0037264633 -0.22426116 0.13770863 0.12269675 -0.13679183 0.111911826 0.23654886
-0.017572772 -0.12705776 -0.15821068 -0.09161451 -0.030309742 -0.14154357 -0.10750161 -0.05276386
